…
308,"user_tz":-540,"elapsed":2666,"user":{"displayName":"Junho Kim","photoUrl":"","userId":"01659192017109775055"}},"colab":{"base_uri":"https://localhost:8080/","height":1000}},"source":["G.summary()\n","tf.keras.utils.plot_model(G, 'generator.png', show_shapes=True)"],"execution_count":0,"outputs":[{"output_type":"stream","text":["Model: \"sequential\"\n","_________________________________________________________________\n","Layer (type)                 Output Shape              Param #   \n","=================================================================\n","dense (Dense)                (None, 12544)             1254400   \n","_________________________________________________________________\n","batch_normalization (BatchNo (None, 12544)             50176     \n","_________________________________________________________________\n","leaky_re_lu (LeakyReLU)      (None, 12544)             0         \n","_________________________________________________________________\n","reshape (Reshape)            (None, 7, 7, 256)         0         \n","_________________________________________________________________\n","conv2d_transpose (Conv2DTran (None, 7, 7, 128)         819200    \n","_________________________________________________________________\n","batch_normalization_1 (Batch (None, 7, 7, 128)         512       \n","_________________________________________________________________\n","leaky_re_lu_1 (LeakyReLU)    (None, 7, 7, 128)         0         \n","_________________________________________________________________\n","conv2d_transpose_1 (Conv2DTr (None, 14, 14, 64)        204800    \n","_________________________________________________________________\n","batch_normalization_2 (Batch (None, 14, 14, 64)        256       \n","_________________________________________________________________\n","leaky_re_lu_2 (LeakyReLU)    (None, 14, 14, 64)        0         \n","_________________________________________________________________\n","conv2d_transpose_2 (Conv2DTr (None, 28, 28, 1)         1600      \n","_________________________________________________________________\n","reshape_1 (Reshape)          (None, 28, 28)            0         \n","=================================================================\n","Total params: 2,330,944\n","Trainable params: 2,305,472\n","Non-trainable params: 25,472\n","_________________________________________________________________\n"],"name":"stdout"},{"output_type":"execute_result","data":{"image/png":"…\n","text/plain":["<IPython.core.display.Image object>"]},"metadata":{"tags":[]},"
…
r_tz":-540,"elapsed":2545,"user":{"displayName":"Junho Kim","photoUrl":"","userId":"01659192017109775055"}},"colab":{"base_uri":"https://localhost:8080/","height":1000}},"source":["D.summary()\n","tf.keras.utils.plot_model(D, \"discriminator.png\", show_shapes=True)"],"execution_count":0,"outputs":[{"output_type":"stream","text":["Model: \"sequential_1\"\n","_________________________________________________________________\n","Layer (type)                 Output Shape              Param #   \n","=================================================================\n","reshape_2 (Reshape)          (None, 28, 28, 1)         0         \n","_________________________________________________________________\n","conv2d (Conv2D)              (None, 14, 14, 64)        1664      \n","_________________________________________________________________\n","leaky_re_lu_3 (LeakyReLU)    (None, 14, 14, 64)        0         \n","_________________________________________________________________\n","dropout (Dropout)            (None, 14, 14, 64)        0         \n","_________________________________________________________________\n","conv2d_1 (Conv2D)            (None, 7, 7, 128)         204928    \n","_________________________________________________________________\n","leaky_re_lu_4 (LeakyReLU)    (None, 7, 7, 128)         0         \n","_________________________________________________________________\n","dropout_1 (Dropout)          (None, 7, 7, 128)         0         \n","_________________________________________________________________\n","flatten (Flatten)            (None, 6272)              0         \n","_________________________________________________________________\n","dense_1 (Dense)              (None, 1)                 6273      \n","=================================================================\n","Total params: 212,865\n","Trainable params: 212,865\n","Non-trainable params: 0\n","_________________________________________________________________\n"],"name":"stdout"},{"output_type":"execute_result","data":{"image/png":"…\n","text/plain":["<IPython.core.display.Image object>"]},"metadata":{"tags":[]},"execution_co
…
